model.pth (torch, 382933 bytes, 31 tensors)

emblayer.weight f4 [28, 30]
000000 91 57 57 bf 6c 67 a5 3f 5f 9a 12 bf 95 ea 34 bf
       -0.8411799 1.2922187 -0.572668 -0.70670444
000010 86 62 b6 bd de 49 7f 3f 67 4a 1b 3f 4d 12 c5 be
       -0.089055106 0.9972209 0.60660404 -0.38490525
000020 b5 9c db 3d e9 d2 7a 3f ce 29 98 be 2a be 4f 3f
       0.10723249 0.97978073 -0.29719394 0.8114954
000030 7d df 78 3e 3e 2e 9e 3e 29 4a c1 3f 6a 28 96 be
       0.24304004 0.30894655 1.5100757 -0.29327708
000040 2e 33 32 3d d4 dc d3 3e 8f 20 3d be f5 2a 57 bf
       0.04350584 0.41379416 -0.18469451 -0.8404992
000050 fd 7c d6 bd 46 b7 74 be 9c 0a 35 bd fa aa 92 3f
       -0.104730584 -0.23898038 -0.04419957 1.1458428
000060 d1 de 14 3e 87 c9 6f be 7f c4 01 3c dc 38 8e 3f
       0.14538123 -0.2341672 0.0079203835 1.1111102
000070 86 80 bd 3e 59 80 d8 3e 6b 0d 8e 3f e0 c1 6c 3f
       0.37012118 0.42285421 1.1097845 0.9248333
000080 2e a3 76 bf 78 86 88 bc 01 2a bb 3e 26 9a 53 bf
       -0.9634274 -0.016665682 0.36555484 -0.82657087
000090 cb a9 8f be 40 49 e6 be e1 17 ea be 25 74 89 be
       -0.2805923 -0.4497776 -0.45721343 -0.26846424
0000a0 8c 1d e6 3f 41 23 b7 3f f8 38 ff 3e 73 b9 98 be
       1.7977767 1.4307634 0.4984815 -0.29828987
0000b0 42 27 c5 3e 9a 28 5a 3f 72 c6 33 bf 9f 73 f5 bd
       0.38506514 0.85218203 -0.7022468 -0.119849436
0000c0 c0 e4 00 3f d8 9f bf be 21 53 3a 3f 0c f0 64 3f
       0.50349045 -0.3742664 0.72783095 0.8942878
0000d0 b0 e9 a6 bf f1 43 c2 3f 02 82 34 3e 27 55 40 3e
       -1.3040066 1.5176984 0.17627719 0.18782483
0000e0 fc 15 1f bf 78 86 64 bf 5a e5 14 bf 15 6c 33 3e
       -0.6214292 -0.89267683 -0.5816246 0.17521699
0000f0 87 a3 44 3e 83 f9 0d bf d8 a0 9d be 5e 24 39 bf
       0.19203006 -0.5545885 -0.30786777 -0.72321117
000100 ff 7f d0 3e 7b 3f 86 be 61 ce 1e be a3 b9 48 3f
       0.40722653 -0.26220307 -0.15508415 0.7840826
000110 88 ec 9f bf 7b 4d 00 3f 4e de 05 3f f9 e6 5b 3c
       -1.2494059 0.50118226 0.52292335 0.013421767
000120 a3 97 7d bc 5a 76 3d 3f f9 9b 8c 3e 57 b6 e1 be
       -0.015478048 0.74008715 0.27462748 -0.44084427
000130 1f c2 47 bf e5 72 16 3e 11 3e 5a bd ab 0f 90 be
       -0.7803058 0.14692266 -0.053281847 -0.28136954
000140 99 7c 66 bd b9 65 58 bf 51 74 90 3f b3 fd ed be
       -0.05627117 -0.84530216 1.1285497 -0.4648262
000150 95 0f 50 3e f8 fd aa 3e 37 19 c4 3e 1c aa 99 be
       0.20318444 0.33396888 0.38300487 -0.30012596
000160 20 a6 12 be 85 f2 de 3e 78 c2 f0 3e 76 70 18 bf
       -0.14321184 0.43544403 0.47023368 -0.595466
000170 ad a5 31 be 2c c0 4f bf 13 81 11 40 d2 db 75 bf
       -0.17348357 -0.81152606 2.273503 -0.96038544
000180 eb 97 01 40 6e f5 05 bf 68 f5 c2 3e 69 fb 7c 3f
       2.0248973 -0.5232762 0.38077855 0.9882112
000190 e9 91 af bf 30 26 93 bf 52 08 9b 3f e4 56 82 be
       -1.3716403 -1.1496029 1.2111914 -0.25456917
0001a0 f7 c0 87 3f 7d 85 12 bf 33 b0 54 3e 96 64 43 bf
       1.0605763 -0.57234937 0.2077034 -0.76325357
0001b0 66 00 0a 3e a7 d5 55 3e 35 d0 58 be 13 e8 a2 be
       0.13476714 0.20882283 -0.21173175 -0.31817684
0001c0 17 8b 86 be d7 7b c5 3f 7e 3a 8b bf 8e b8 d0 bf
       -0.26277992 1.5428418 -1.0877225 -1.6306322
0001d0 d4 e6 da 3b 42 f1 00 3e 1a 68 48 bf 79 0b 75 be
       0.006680349 0.12592033 -0.78283846 -0.23930158
0001e0 de b6 f2 3e a8 ab 2b 3f 42 38 88 3f 91 31 43 bf
       0.47405142 0.670588 1.0642169 -0.7624751
0001f0 a9 87 cd 3e 04 72 b8 bf 39 82 65 bf 18 05 ed 3f
       0.40142563 -1.4409795 -0.8965183 1.851718
000200 a0 df 85 3d a6 2b 62 bd 6f e3 8f bf 1a 6d ff 3e
       0.06536794 -0.055217408 -1.1241282 0.49887925
000210 1d de 8b bf 9a 08 7f bc 60 36 0f bd f6 38 08 bf
       -1.0927159 -0.015566016 -0.034963965 -0.53211915
000220 96 db 54 3e 98 b9 e2 be da 58 3c bf bb 02 46 be
       0.2078689 -0.44282222 -0.73573077 -0.19336979
000230 2c 5c 96 bf 68 95 6e 3f d5 e6 47 bf d0 cb 6f 3f
       -1.1746879 0.93196726 -0.78086597 0.9367037
000240 a9 f4 8f 3f e7 f6 8e 3e 85 70 a7 3f ca 24 72 3f
       1.1246539 0.27922747 1.3081213 0.94587386
000250 d0 17 29 40 4d 95 47 bb 48 62 71 bf 77 1e ea 3e
       2.6420784 -0.003045398 -0.9429059 0.45726368
000260 c3 45 ec be f9 0f 4e 3d 81 b5 43 3f 12 b4 7f be
       -0.46146974 0.0503082 0.7644883 -0.24971035
000270 d4 2b 07 40 d6 e7 80 be 68 77 01 bf 8f 0b 92 3f
       2.11205 -0.25176877 -0.50572824 1.1409777
000280 d5 e1 e4 3e 56 c6 25 bf 5e 3a cc be e2 37 18 3e
       0.44703546 -0.6475576 -0.3988828 0.14865068
000290 b2 9a 50 3f 3b 5a 23 3f dc f6 73 bc a6 1d b3 3f
       0.81486046 0.63809556 -0.014890399 1.3993423
0002a0 4c e1 f1 3f 37 4f 8b 3f 4b 1c 7f 3f 84 bf bd 3f
       1.889688 1.088355 0.99652547 1.4824071
0002b0 f6 4a 0c bf b7 e2 dd be 0d 10 21 bf 73 45 a5 3e
       -0.5480188 -0.43337032 -0.62915117 0.32279548
0002c0 de a4 37 3f be 58 6e 3f ec 46 09 be 5f ff 17 3f
       0.7173594 0.9310416 -0.13405961 0.5937404
0002d0 b7 b1 9b bf f2 a4 0c bf a1 f2 ab 3e ef 2a 52 3f
       -1.2163609 -0.54939187 0.3358355 0.8209676
0002e0 f8 cc 80 bf 58 2d 20 c0 ff f3 b5 bc bf 2d 45 bf
       -1.0062551 -2.5027676 -0.022211073 -0.7702293
0002f0 50 0d ee 3d 86 93 be 3f 25 80 82 3e 60 59 a5 3e
       0.11623633 1.488877 0.25488392 0.3229475
000300 e4 7f 06 bd d8 47 9a 3f 3b 11 dc 3b 3a 00 20 bf
       -0.03283681 1.2053175 0.006715921 -0.62500346
000310 a9 71 32 3f 57 ed 87 bf c6 5c 2d 3f 7c 16 62 bd
       0.6970468 -1.0619305 0.67719686 -0.055197224
000320 92 e5 97 be a9 5c 89 3f e7 39 aa bf ad 07 87 3f
       -0.29667336 1.0731403 -1.329892 1.0549217
000330 09 8c 16 3f 64 d9 b0 3f 3c fe c9 3f 7e 14 93 3e
       0.58807427 1.3816342 1.5780711 0.28726572
000340 02 0b 87 bf da 30 29 be 62 20 38 bf ed 65 d9 be
       -1.0550234 -0.16522542 -0.7192441 -0.42460576
000350 8e 8b 6b bd f9 cd 5d 3f d9 49 0d 3f b0 18 70 3f
       -0.057506137 0.86642414 0.5519081 0.9378767
000360 bd 70 ec 3e 9f 9f e3 3e b2 a1 aa 3f 02 19 e9 3d
       0.46179762 0.4445772 1.3330595 0.11381723
000370 9f 81 83 bf f8 f4 8a 3d b0 55 22 3f fb 12 8f 3f
       -1.0273932 0.06785005 0.63412 1.1177667
000380 1d 66 20 bf 67 5b 1e 40 1c 45 7e 3f 2a 7c d9 be
       -0.6265581 2.4743288 0.993242 -0.42477542
000390 47 27 5c be 58 c5 38 3f 1a d6 66 3f 21 5c 17 3f
       -0.21499358 0.7217612 0.90170443 0.5912495
0003a0 c9 0c f8 3f 52 78 9e 3c a4 ad 67 be ed 29 0a c0
       1.9378902 0.019344483 -0.22624832 -2.158809
0003b0 93 b5 37 3f d0 d9 f7 bd ea 5b 41 3f 55 a1 55 3f
       0.71761435 -0.12102091 0.75530875 0.834493
0003c0 4e 08 29 bf d7 92 97 bf 26 6f 54 bf 51 b2 c7 bf
       -0.66028297 -1.1841687 -0.829821 -1.5601293
0003d0 6d 74 bb 3f 62 c5 79 3f b9 9f 34 3d c0 ac cf 3f
       1.4644905 0.9756681 0.044097636 1.6224594
0003e0 3f 28 00 40 73 f1 4c bf 6a 0b cd 3f 19 53 cd 3e
       2.0024564 -0.8005592 1.6019108 0.4010246
0003f0 6d 2d 28 bf de 8e dc be ec d3 4e 3e 13 f7 cb 3f
       -0.65694314 -0.4307775 0.2019803 1.5934776

ln1.weight f4 [120, 240]
000000 d1 07 6c bd b2 de b4 bd 53 ba 6e 3c 89 2e 04 3c
       -0.05762464 -0.08831538 0.01457079 0.0080677355
000010 f6 ac 26 3d 0e cc 19 3e d3 93 87 bd f0 44 39 bc
       0.040692292 0.15019247 -0.06619992 -0.01130794
000020 5e 50 af bd 9a 9a 12 3e f3 11 dc bd f3 7c 8f 3d
       -0.08560251 0.14316788 -0.10745611 0.07006254
000030 56 dd 55 3d fe 98 fe 3c c9 8b c3 3c d1 73 b0 3d
       0.052213036 0.031078812 0.023870366 0.0861584
000040 52 7c 92 3d 9c 84 1e bd 8c 6b 48 bd 37 1c 0c bc
       0.071526185 -0.038700685 -0.04893069 -0.008551649
000050 c1 6c 1d 3d 16 c9 e3 bc c7 dd 24 bd 48 c6 11 3d
       0.038433794 -0.027805846 -0.040250566 0.035589486
000060 4c d7 cf bd 29 fe 85 bd 40 d6 1e bd f4 0a c6 3d
       -0.101484865 -0.06542618 -0.038778543 0.09670058
000070 d8 61 60 bb 0d 74 30 be 66 10 ad bd 7c aa 76 bd
       -0.0034238007 -0.1723177 -0.084503934 -0.06022118
000080 12 f6 99 bd 77 45 2c bd ce 24 b5 3c fa 9b c3 3b
       -0.07517637 -0.042058434 0.022112276 0.0059695216
000090 ac d0 11 3e e4 e5 8b 3d 9f e3 ff 3c 90 1e f7 bc
       0.14239758 0.068309575 0.031236468 -0.03016594
0000a0 37 58 16 be 36 b8 68 3d 98 c5 f6 3d 1f c4 72 3d
       -0.14682089 0.056816302 0.12049407 0.059269067
0000b0 b2 11 89 bd aa 6c 23 be 1b 6c c3 3d 2c 63 1a bd
       -0.06692828 -0.15959421 0.09542104 -0.037692234
0000c0 c1 5a fb bd 77 af 8c 3d d2 bc 3f bc 59 21 96 3c
       -0.12273169 0.06869405 -0.011702733 0.018326448
0000d0 c8 32 8f 3d a5 a4 e2 bd 36 15 22 be 25 42 92 bb
       0.06992108 -0.1106656 -0.15828404 -0.0044634514
0000e0 1b 08 ca 3d 63 cf 03 3d 74 84 71 3d a6 08 5a bd
       0.09864827 0.0321802 0.058964208 -0.053230904
0000f0 52 6c 52 be 30 8e 14 bd 3a cc 36 3d 36 6c 89 3d
       -0.20549133 -0.036268413 0.04462836 0.06710093
000100 f5 d2 7b bd 2b 96 2a be d5 6f e0 3d 6c bd b2 bd
       -0.06148048 -0.16658847 0.1095883 -0.087275356
000110 d8 12 40 b7 dc c8 da 3c c2 d7 9b be 80 5a d1 bd
       -1.1448479e-05 0.026707105 -0.30438048 -0.1022234
000120 6f 04 83 bd 83 d4 05 3e 80 24 0e bb 33 c1 b3 bc
       -0.0639733 0.13069348 -0.0021689236 -0.02194271
000130 a5 6f 6f be 15 58 02 3d af 6b 06 3d 8b 52 9b 3c
       -0.23382433 0.031822283 0.03281754 0.018960258
000140 96 e6 83 bd 7e 2f 44 3e 0e f0 88 3c 3e 07 4e bd
       -0.06440465 0.19158742 0.01671603 -0.050299875
000150 d6 8b 40 be e5 f5 07 be 59 30 5d bd 0e 1f 22 bd
       -0.18803343 -0.13277395 -0.054001186 -0.039580397
000160 8b 43 71 bd 0b 38 d9 bd 19 a2 0f 3e 78 be 7a bc
       -0.058902305 -0.106063925 0.14026679 -0.0153042
000170 af 22 f8 3d 39 db 32 3e 12 f3 39 3d 4c e9 fa bd
       0.1211599 0.1746644 0.045397826 -0.12251529
000180 b5 d1 a4 3d e2 68 16 bc 68 7d af 3c 69 6f c8 bd
       0.08047811 -0.009180279 0.021422103 -0.09786875
000190 2a b6 15 bc 97 d3 c9 bd 67 d1 0b be fc 2b cb bd
       -0.00913767 -0.09854811 -0.136541 -0.09920499
0001a0 67 4a a7 bd a2 56 83 3d e3 d8 e1 3c 1a e3 29 3e
       -0.08168488 0.06413008 0.02756924 0.16590539
0001b0 a2 21 d2 3d c7 84 4a 3e f5 86 8f 3d 8c 05 41 3d
       0.10260321 0.19777213 0.07008163 0.04712443
0001c0 b7 fc 83 bd 30 fd 06 bc 91 b5 9d 3d 16 02 08 bd
       -0.06444686 -0.008239076 0.07700647 -0.033205114
0001d0 2f 73 ba bc ca a3 6c be 35 0e e5 3c 13 4a b3 3c
       -0.022760002 -0.23109356 0.027960876 0.021885907
0001e0 c9 b8 45 3e b6 59 4f bd 53 68 2a 3e 08 d6 47 3e
       0.19308771 -0.050622664 0.16641359 0.1951524
0001f0 31 ad 4d bd 14 db 37 be 6a 8c 52 3d 09 2f 53 bd
       -0.050213996 -0.17954665 0.05140344 -0.051558528
000200 f0 db 3b bd e4 30 40 3b c0 ef 50 be eb fb f8 bd
       -0.045864046 0.0029326016 -0.20403957 -0.121574245
000210 0f 17 70 3a 89 21 fb 3d ac e3 24 be 98 92 33 3d
       0.00091587094 0.12262256 -0.16102475 0.043840975
000220 2e a8 11 3d 78 5f ba bc 6d 0c 22 bc 98 2e 9f 3d
       0.03556078 -0.022750601 -0.009890658 0.07772559
000230 e7 63 4c be ae fd 15 3d c8 3d 5a bd 4b b6 0a 3d
       -0.19959985 0.03661888 -0.053281575 0.033865254
000240 4b 30 07 be fb dd 7f 3d d2 8c c8 bd c8 3c 4f 3c
       -0.13202016 0.062467556 -0.09792484 0.012648769
000250 02 2a 02 3d 9c 5c 43 be 94 3d 23 bd 9a 08 92 3d
       0.031778343 -0.19078296 -0.039853647 0.07130547
000260 0b d7 a6 3d 5e 7a 84 3d e6 71 4e 3e 93 c2 8c be
       0.08146485 0.06468652 0.20160636 -0.27492198
000270 ab de 84 3d 96 9d d7 bd 64 be a2 bd 7a 9c d9 bc
       0.06487783 -0.10528104 -0.079464704 -0.026563872
000280 e9 e6 4d be 2d 61 2b be 5d bb e6 3d 5a ac 8b bd
       -0.20107616 -0.16736288 0.112662055 -0.06819983
000290 f9 87 46 be 87 00 07 bb fe 1e 9e 3d da fa 92 3d
       -0.19387807 -0.002059968 0.07720755 0.071767524
0002a0 92 0c 16 be 86 66 28 3d 69 44 1f 3e cd 0d 63 bc
       -0.14653233 0.0411134 0.1555344 -0.013858271
0002b0 f7 d7 27 be 12 0d 3b be 06 f3 d8 bc 42 17 6d 3d
       -0.16390978 -0.18266705 -0.02648307 0.05788351
0002c0 21 1d 39 be c0 ac 89 3d 53 36 87 3c a3 fb 87 3c
       -0.18077518 0.067224026 0.016505396 0.016599482
0002d0 3b aa 59 3d 9b 91 3f be cd 51 57 3e 2e b8 ce 3c
       0.05314086 -0.18707888 0.21027298 0.025234308
0002e0 e6 fd dd 3d d0 f6 c3 be 9a 98 40 be 6b c7 1a 3e
       0.10839443 -0.3827424 -0.18808213 0.15115134
0002f0 f4 16 cc bd 85 cc c2 3d 3b 73 42 be a1 a0 2a be
       -0.099653155 0.09511665 -0.1898927 -0.16662838
000300 63 a0 30 3e c5 20 df 3d 14 ca 5c 3d f0 69 7a bd
       0.17248683 0.10894922 0.053903654 -0.061136186
000310 66 1d 2d 3c 3e 99 33 be 8e 65 2b 3d d4 50 20 3c
       0.010566091 -0.17538926 0.041844897 0.009784896
000320 a5 0b a3 bd a3 62 c4 bd 66 88 c8 bb f8 5a 01 bd
       -0.079612054 -0.09589126 -0.0061197756 -0.031580895
000330 00 93 92 be 6b d6 cb 3d a9 e0 fe bd 10 da ed be
       -0.28627777 0.09953006 -0.12445194 -0.4645543
000340 61 54 38 be 75 3c 1c bd 63 f2 bb be c7 d9 01 be
       -0.18000938 -0.038143594 -0.36708364 -0.12680732
000350 97 e2 55 bd a7 ff dd bd 71 e7 78 bd 21 aa 86 be
       -0.052218046 -0.108397774 -0.060767595 -0.26301673
000360 c2 42 96 3c e7 d9 6c be a2 45 3b be db f4 7a bd
       0.01834238 -0.23129998 -0.18288282 -0.06126867
000370 de 44 e6 bc 0d 07 0b 3e c1 97 63 be 73 ad 5c bd
       -0.02810901 0.13576908 -0.22225858 -0.05387635
000380 5b 73 59 3e 79 30 c2 bd 64 ac 10 bd bc 5b 9c 3d
       0.21235411 -0.09481902 -0.035320655 0.076346844
000390 d5 7d 46 be 24 80 91 bd 69 43 92 be b9 df 28 be
       -0.19383939 -0.07104519 -0.28567055 -0.16491593
0003a0 42 14 a7 3e 7f 86 15 3e 15 4e da 3e 8a 3e 6d 3d
       0.32632643 0.14602087 0.42637697 0.05792097
0003b0 6e b0 54 3c 03 1d 6c be 84 24 14 be b7 3e 40 bc
       0.012981517 -0.23057942 -0.14467055 -0.011733702
0003c0 3b 0a 1d 3e 41 7c 9a bd 0b da 09 3e 1f 0b d6 3d
       0.15335934 -0.07543231 0.13462083 0.1045134
0003d0 e2 b4 05 be f7 c2 80 bc 2e ff b0 3c 5e 2f 6d bd
       -0.13057283 -0.015717966 0.021606054 -0.0579065
0003e0 40 49 44 bc 13 4e 9a bd c6 55 77 bd 4e b4 ae 3d
       -0.011980355 -0.07534423 -0.060384534 0.08530484
0003f0 4e 94 c9 bd 8e 9e 1d 3e 5d f8 0e 3d a7 50 8e 3d
       -0.0984274 0.15392515 0.034904826 0.06948977

bn1.weight f4 [120]
000000 19 74 5f 3f 7a 44 7b 3f ea 58 72 3f a7 0d 5c 3f
       0.87286526 0.9815136 0.9466692 0.8595833
000010 83 2d 5d 3f 7f 71 6f 3f 25 65 6b 3f af 02 66 3f
       0.8639757 0.93532556 0.9195121 0.89847845
000020 77 c7 78 3f e7 36 81 3f cd f5 76 3f d2 71 76 3f
       0.9717936 1.009488 0.9646881 0.96267426
000030 25 c4 5e 3f 1c 81 46 3f 49 2d 60 3f 33 67 6f 3f
       0.8701804 0.77540755 0.875691 0.93516845
000040 8b 51 52 3f ae 63 50 3f c9 9b 64 3f ff e2 69 3f
       0.82155675 0.814021 0.8930021 0.91361994
000050 c0 2d 63 3f ad 61 75 3f c2 4c 4e 3f 60 a5 6e 3f
       0.88741684 0.95852166 0.80585873 0.9322109
000060 a4 62 6c 3f 55 12 60 3f 5c 47 6b 3f 6a 6f 55 3f
       0.92338014 0.8752797 0.9190576 0.8337313
000070 4f e5 61 3f dd 37 71 3f 2d 17 5c 3f 44 a3 68 3f
       0.8824052 0.94225866 0.85972863 0.90874124
000080 4c 89 71 3f a5 6f 55 3f 49 3b 64 3f d3 03 5f 3f
       0.94350123 0.8337348 0.8915296 0.8711521
000090 59 e8 7c 3f 91 5f 63 3f 00 bf 8c 3f 12 33 49 3f
       0.98792034 0.888177 1.0995789 0.7859355
0000a0 2c 25 5f 3f 63 65 73 3f d9 58 67 3f 96 67 74 3f
       0.87166095 0.9507658 0.90369946 0.9547056
0000b0 63 7a 5d 3f bf bb 51 3f be 4c 4c 3f 52 42 67 3f
       0.8651487 0.819271 0.798046 0.9033557
0000c0 50 2a 8e 3f 9a f3 73 3f 2a eb 6a 3f db 9c 78 3f
       1.1106663 0.9529358 0.9176508 0.9711434
0000d0 77 5c 55 3f ae 99 6d 3f 97 9f 5c 3f ac c5 6b 3f
       0.83344215 0.9281262 0.86181015 0.920985
0000e0 90 d1 69 3f 53 b4 88 3f 81 2c 71 3f 48 33 58 3f
       0.9133539 1.068003 0.9420853 0.8445325
0000f0 7a e3 4c 3f bb d4 67 3f 26 0e 77 3f 99 4f 68 3f
       0.800346 0.90558976 0.96505964 0.90746456
000100 b7 27 6b 3f 36 cf 67 3f 44 df 59 3f bb a7 6e 3f
       0.91857475 0.90550554 0.851063 0.93224686
000110 4f 8a 6a 3f cc 29 71 3f c1 06 60 3f 8d e5 6a 3f
       0.9161729 0.942044 0.87510306 0.91756517
000120 23 86 65 3f 5e 7b 6a 3f 6e 3d 5e 3f 0b 3d 6b 3f
       0.896578 0.91594493 0.86812484 0.9189002
000130 4f aa 62 3f b4 01 75 3f 4b 1a 6d 3f 51 13 6a 3f
       0.8854112 0.95705724 0.92618245 0.91435724
000140 42 38 7f 3f ce c7 5a 3f 09 46 6c 3f f6 0d 65 3f
       0.9969522 0.8546113 0.92294365 0.8947443
000150 83 71 80 3f 9c 87 61 3f 95 a5 59 3f ba 22 64 3f
       1.0034641 0.8809755 0.85018283 0.8911549
000160 e9 03 56 3f 3b 48 7e 3f c2 49 75 3f 95 d4 68 3f
       0.83599716 0.99328965 0.9581567 0.90949374
000170 8a c1 75 3f df f9 7c 3f 16 96 70 3f 98 26 7c 3f
       0.9599844 0.98818773 0.9397901 0.9849639
000180 30 96 68 3f c6 3d 66 3f ca ac 70 3f 3e 83 7a 3f
       0.9085417 0.8993801 0.94013655 0.9785651
000190 04 64 7a 3f 50 0f 6b 3f 95 e5 69 3f 28 7d 72 3f
       0.9780886 0.9182024 0.9136594 0.94722223
0001a0 ed 74 6c 3f 95 33 5b 3f a3 67 5a 3f 5d be 82 3f
       0.92365915 0.8562558 0.8531439 1.0214344
0001b0 41 e6 7e 3f 97 39 66 3f a2 ea 4f 3f d3 4f 7a 3f
       0.9957009 0.89931625 0.81217396 0.9777805
0001c0 00 37 6d 3f a5 a1 72 3f 18 65 7f 3f 3a 0f 59 3f
       0.9266205 0.947779 0.9976363 0.8478886
0001d0 a8 c2 77 3f 78 3d 5e 3f d6 ab 74 3f c2 a2 65 3f
       0.96781397 0.86812544 0.955747 0.89701474

bn1.bias f4 [120]
000000 b2 86 1c be df a8 22 be 83 d0 e1 bd a4 e3 e6 bd
       -0.15285757 -0.15884732 -0.110260986 -0.11273888
000010 15 50 0d bd 51 d0 ac bd b0 c3 7c be fd 3a 17 be
       -0.0345002 -0.08438171 -0.24684024 -0.14768596
000020 2f 7d fb bc 4c 95 c9 bd 14 90 29 be 23 71 85 bd
       -0.03069934 -0.09842929 -0.16558868 -0.0651572
000030 69 1c 30 be 79 34 2d bd 93 0a ba bd 4d bc aa bd
       -0.17198338 -0.04228637 -0.09084048 -0.08336697
000040 d0 2e b4 bd 22 63 71 be da c2 08 be 3c 93 a5 bc
       -0.08797991 -0.23572972 -0.1335558 -0.020211808
000050 55 e2 6c bd 33 bf b0 3d 9b 54 73 3d ae 1a 68 bd
       -0.057833035 0.08630218 0.059406858 -0.05666607
000060 ec bc 12 3e 74 82 4f bc de b7 cb bd d2 71 74 bd
       0.1432988 -0.01266538 -0.09947179 -0.05967886
000070 c5 04 15 3d 79 b2 cc bd 82 48 31 be d4 9d 7d 3d
       0.0363815 -0.099949785 -0.17312816 0.061918095
000080 8f 22 7b bd 7e 6b ca bd 94 74 8a bd 8b 55 a5 3d
       -0.061312255 -0.09883784 -0.06760517 0.08072957
000090 32 67 ec bc 78 77 f7 bd b5 25 51 3d 6b a3 b1 bd
       -0.028857801 -0.12083334 0.05106135 -0.08673748
0000a0 49 52 54 be 8e fd d0 bd 87 87 30 be eb 1f 2a 3c
       -0.20734514 -0.10204612 -0.172392 0.010383586
0000b0 10 2d a6 bd 62 e4 68 3d 82 9e 62 bd b3 d8 03 be
       -0.08114064 0.056858428 -0.055326946 -0.12875633
0000c0 61 1b cd bd 02 29 8f bd ee c3 75 bd fa 00 96 bb
       -0.10014988 -0.069902435 -0.060001306 -0.004577753
0000d0 54 1d d3 bc 88 47 73 bc 14 30 10 bd 21 a6 01 be
       -0.02577082 -0.014848597 -0.0352021 -0.1266103
0000e0 62 4e f2 bd 50 43 9a bc b7 0f 38 be fc 0f 5e be
       -0.118313566 -0.018830925 -0.17974745 -0.21685785
0000f0 86 da 3a bd f3 67 b8 bc 6e f2 35 3b c4 0a 2b be
       -0.045618556 -0.022510504 0.0027762908 -0.16703326
000100 e8 df 05 be 15 08 e3 bc 35 32 be bd b0 97 d0 bd
       -0.13073695 -0.027713815 -0.0928692 -0.10185182
000110 d7 e9 33 bd 50 1d 30 be 67 f1 a0 3d 07 cb d8 bd
       -0.04392418 -0.17198682 0.07858544 -0.105855994
000120 15 b0 d0 bd c9 14 2a bd ca d0 e4 3c bd 10 c7 3b
       -0.10189835 -0.04152373 0.02793159 0.0060749934
000130 bb d0 ad 3c 3c d6 e1 3c 10 e6 f8 bd 14 c9 25 be
       0.021217695 0.027567975 -0.12153256 -0.16189986
000140 68 20 2a be 73 ea 52 3d ac bf 57 bd 7a 50 39 bd
       -0.16613925 0.05149312 -0.052673027 -0.045242764
000150 e2 0d f6 3b 64 c4 d4 bd 6b c1 86 be 3e 3a 05 be
       0.007508979 -0.10389021 -0.2631944 -0.13010499
000160 6c b7 47 be a6 63 88 bd b1 e9 41 bd 1a 11 ce 3c
       -0.19503564 -0.066596314 -0.047342006 0.025154639
000170 e9 53 35 be 3f 75 09 be 73 74 e4 bd 2d bd 9e bc
       -0.1770779 -0.13423632 -0.111550234 -0.019377315
000180 24 54 50 3b 57 32 37 3d 6d 39 48 3b 54 c0 8d bd
       0.0031788433 0.044725742 0.0030551807 -0.06921449
000190 2d d5 d6 bd f9 bf 8b bd cf 9a 18 be 58 d5 63 3b
       -0.10489879 -0.06823725 -0.14902805 0.0034764614
0001a0 b5 c2 e3 bd 7c 23 86 bd 2a 4f fd bb 33 16 33 be
       -0.11121122 -0.06549737 -0.0077303844 -0.17488937
0001b0 58 91 1b be 15 ed 07 be 85 90 40 3c e4 8c 26 be
       -0.15192163 -0.13274033 0.011753206 -0.16264683
0001c0 d0 b1 37 3e ac 68 fb bd d4 9b fb bd 16 9c 4f bd
       0.17938924 -0.12275824 -0.12285581 -0.050685965
0001d0 d7 a1 ea 3b 07 63 bb ba 01 a4 11 be 91 1b af bd
       0.007160406 -0.001429648 -0.14222719 -0.0855018

bn1.running_mean f4 [120]
000000 5b bb 99 bf 53 c2 9d 3e 00 d7 5e b9 57 c6 3f bf
       -1.2010301 0.3081232 -0.00021251664 -0.7491202
000010 57 d6 90 3e e0 bf 22 3f 93 5d 96 3f f7 90 10 c0
       0.28288528 0.6357403 1.1747307 -2.258848
000020 b1 a3 62 3f 11 3b 57 3f a4 68 95 be 15 dd 14 c0
       0.88531023 0.84074503 -0.29181397 -2.3259938
000030 fa 06 04 40 e7 2c 1b bf a3 a9 f9 bc a0 27 95 3f
       2.0629258 -0.6061539 -0.030476397 1.1652718
000040 72 77 84 be f0 41 01 bf 38 1f 84 3f 38 af fb 3d
       -0.2587238 -0.5049124 1.0322027 0.1228928
000050 84 0b 0c be b2 37 f7 3e 46 12 05 bf 77 6c ac 3f
       -0.13676268 0.4828468 -0.5198101 1.3470601
000060 cf 74 38 3f c3 25 64 bd 92 63 1d bf a2 7f 83 be
       0.72053236 -0.055700075 -0.6148006 -0.25683314
000070 6c 42 56 3f 68 eb c4 3f 5a a6 3b c0 da 7d 44 3e
       0.836951 1.538434 -2.9320283 0.19188634
000080 ac 80 7c 3e 3b 5d ef bf 2c 88 0f 3f 23 04 00 bd
       0.2465846 -1.8700327 0.56067157 -0.031253945
000090 f8 f4 8e 3f cc 97 08 bd f8 86 b0 3e 33 c5 29 bf
       1.1168509 -0.03334789 0.34477973 -0.6631653
0000a0 97 f6 1d c0 ad 72 7d 3f 51 0d fc be 46 fa bb 3e
       -2.4681756 0.99003106 -0.4922891 0.3671438
0000b0 70 70 89 be b5 1b 24 bf e0 26 de be a2 31 70 3f
       -0.26843596 -0.6410478 -0.43389034 0.93825734
0000c0 71 8f 2b 3f ed d7 ba 3f 89 a7 69 3f a0 18 ce bc
       0.6701575 1.4597145 0.91271263 -0.025158226
0000d0 61 be 34 bf f5 9f 8b 3e 30 a9 4f bf 70 6e 2b bf
       -0.70602995 0.27270475 -0.81117535 -0.6696539
0000e0 88 3e bf bf 09 f0 09 3f 95 18 88 3e 30 02 d9 3f
       -1.4940958 0.5388189 0.26581255 1.6953793
0000f0 b5 75 c1 be ae 09 f2 3e dc d6 90 3f 62 f5 22 c0
       -0.37785116 0.4727301 1.131557 -2.546227
000100 3d 19 26 3f c3 84 8b bf 9b 7d 93 3f df a9 42 3f
       0.6488226 -1.0899891 1.1522707 0.7604045
000110 0f ba 14 3f 22 97 68 3f 5f a8 8b bf b8 fc d7 3e
       0.580964 0.9085561 -1.0910758 0.42184997
000120 25 17 a6 be e8 ba 31 bd a9 09 58 bf 87 8a 7f 3f
       -0.32439533 -0.04339114 -0.8438974 0.9982075
000130 43 42 72 3f 42 af 23 3e a6 50 1e c0 4c 37 6e 3e
       0.9463236 0.15984824 -2.4736724 0.23263282
000140 7e 2b b9 3f a1 7c da 3f 9f 61 07 40 d5 e6 1f 3f
       1.4466398 1.7069284 2.1153333 0.62461597
000150 f2 20 bb 3f 61 4f 17 c0 60 d3 bf bf 98 28 7c 3f
       1.4619429 -2.36422 -1.4986382 0.9849944
000160 93 77 ff be 22 f1 a3 3d 78 cf 2d 3f c1 95 82 3e
       -0.49895915 0.08004977 0.678947 0.25504878
000170 ed 67 a2 3e a4 5d b4 be c0 28 3d 3f 8e 5c 43 3f
       0.31719914 -0.35227692 0.73890305 0.763131
000180 21 1c 29 bf 6e 66 c0 3e 73 95 32 bf 10 d4 1e bf
       -0.66058546 0.37578148 -0.6975929 -0.6204233
000190 d5 ac 22 3f 96 0c 41 3f 68 24 c7 bf 96 c0 d3 be
       0.6354497 0.7540983 -1.5557985 -0.4135787
0001a0 56 77 c1 3f fe 89 b3 bd 26 11 47 3f 60 cb c7 3d
       1.5114543 -0.08766554 0.7776054 0.097555876
0001b0 09 c2 06 40 ef 0c df 3e e0 b1 a8 bf 7f b5 67 be
       2.105593 0.43564555 -1.3179283 -0.22627829
0001c0 c3 b0 c3 be ea 8f c5 be 3f 00 78 3f 0b 8a a4 be
       -0.38220796 -0.3858636 0.96875376 -0.32136568
0001d0 f6 68 b6 bf 81 ee 30 3f 40 dd d0 3e 14 c9 a8 3c
       -1.4250782 0.6911393 0.407938 0.020603694

bn1.running_var f4 [120]
000000 f9 ec 92 40 a8 7e 11 40 84 6b 1f 40 21 cc 0c 40
       4.5914273 2.2733555 2.4909372 2.199959
000010 3d 2f 04 40 01 4e 1d 40 df 3d 26 40 a4 51 ac 40
       2.0653832 2.457886 2.5975263 5.384966
000020 9e e0 24 40 fd 46 28 40 67 c4 10 40 39 3e 85 40
       2.5762095 2.6293328 2.2619874 4.1638455
000030 36 95 18 40 20 1d 1a 40 57 e5 14 40 61 01 31 40
       2.384107 2.4080276 2.3264978 2.7657092
000040 2c ec 1d 40 94 f8 01 40 66 34 02 40 43 e0 11 40
       2.4675398 2.030797 2.0344481 2.2793128
000050 ba 49 42 40 7e a0 08 40 d7 7f 16 40 c8 66 22 40
       3.03575 2.1347957 2.3515527 2.5375233
000060 ee c0 21 40 33 e3 0a 40 be 77 ff 3f ce 6e e7 3f
       2.5274005 2.1701171 1.9958417 1.808069
000070 8e 20 09 40 18 9d 45 40 81 3b b0 40 7a 99 03 40
       2.142612 3.0877132 5.5072637 2.0562425
000080 5f 75 59 40 db 82 3d 40 94 73 2c 40 52 b7 20 40
       3.3977888 2.9611118 2.6945543 2.511189
000090 a8 05 15 40 0d 8f 69 40 58 b5 13 40 e9 a9 1c 40
       2.3284702 3.6493561 2.3079433 2.4478705
0000a0 4a c2 9e 40 ff e8 2c 40 e0 44 fc 3f ec 9d 19 40
       4.961217 2.701721 1.9708519 2.4002638
0000b0 69 d6 17 40 2f c5 1a 40 d0 eb cb 3f 5b d0 22 40
       2.3724616 2.4182851 1.5931339 2.543967
0000c0 5f 26 12 40 34 d7 1c 40 45 13 03 40 c4 55 20 40
       2.283592 2.450635 2.048051 2.5052347
0000d0 73 10 38 40 2c a4 14 40 6d d8 34 40 42 29 10 40
       2.876004 2.3225203 2.8257096 2.2525182
0000e0 52 79 5d 40 6d 08 dd 3f 0a 72 12 40 03 20 09 40
       3.4605298 1.7268196 2.2882104 2.1425788
0000f0 5e 7e 18 40 52 30 06 40 ac b1 01 40 fa 77 9a 40
       2.3827128 2.0966992 2.0264692 4.8271456
000100 c8 6b 26 40 44 85 10 40 7d 5b 17 40 8e 9b 23 40
       2.6003284 2.258134 2.364959 2.5563693
000110 42 40 12 40 75 02 fe 3f 93 06 23 40 39 a5 0a 40
       2.285172 1.98445 2.5472763 2.1663344
000120 fb c0 0c 40 2d cc 17 40 34 8d 4c 40 fd 00 0d 40
       2.1992786 2.371837 3.1961184 2.2031853
000130 07 4f 12 40 55 59 0c 40 32 96 99 40 22 91 01 40
       2.2860734 2.1929524 4.7995844 2.0244832
000140 88 30 27 40 b0 63 0c 40 a7 b1 1c 40 3c 0f 0f 40
       2.612337 2.1935844 2.448343 2.2353048
000150 d3 ac 0e 40 cc cb 88 40 55 48 73 40 21 3f fe 3f
       2.2292984 4.2748775 3.8012898 1.9863015
000160 79 8e 00 40 05 ea 35 40 6b de 1f 40 65 ea 33 40
       2.0086958 2.8424084 2.4979503 2.8111813
000170 f8 ed 21 40 5a e1 21 40 72 7d 2a 40 47 8c 25 40
       2.5301495 2.5293794 2.6639066 2.5866868
000180 a2 e0 37 40 63 a3 17 40 4d 31 3e 40 52 94 43 40
       2.8730855 2.3693473 2.971759 3.0559278
000190 87 da 01 40 14 11 09 40 b8 33 56 40 53 f2 22 40
       2.0289629 2.1416674 3.3469067 2.5460403
0001a0 ec 1d 42 40 d9 91 27 40 1a 9c 0b 40 45 33 2b 40
       3.0330763 2.6182768 2.1814027 2.6750042
0001b0 b6 d2 5e 40 e9 84 ff 3f ee ea 2b 40 09 00 6d 40
       3.4816108 1.9962436 2.686214 3.7031271
0001c0 08 6c 0b 40 65 3a 37 40 d5 46 1b 40 f8 3e ed 3f
       2.1784687 2.8629391 2.4261982 1.8534842
0001d0 e7 51 86 40 b8 82 e1 3f be 25 35 40 6a f4 19 40
       4.197498 1.7618017 2.8304286 2.4055429

FFNblocks.0.ln.weight f4 [120, 120]
000000 13 60 85 bd cf 42 91 3d 7f 69 7c bd f8 a0 a9 3d
       -0.06512465 0.07092821 -0.061624046 0.082826555
000010 4a 59 a8 3d 2d 6f 2f 3d ae e7 f7 bd f4 c0 97 bd
       0.082201555 0.042830635 -0.12104736 -0.0740985
000020 b4 56 54 3c 9c 3e 3e 3d 2b 27 af bc 18 ff cc bd
       0.012960125 0.046446428 -0.021380981 -0.10009593
000030 5e f1 1a bc 29 8e 2e 3e 31 12 25 be 82 bc 59 3c
       -0.0094569605 0.17046417 -0.1612022 0.013289573
000040 34 fd e0 3d 98 d3 b4 bb d0 87 32 be 3e 4b 8b bd
       0.10985795 -0.005518388 -0.17434621 -0.06801461
000050 34 22 45 3e ae 14 e5 3c 14 c8 00 3e 4d c4 47 bd
       0.19251329 0.027963962 0.12576324 -0.04877119
000060 8e 36 f5 bc 65 26 da bd d1 bc 50 be 9e 65 ed 3d
       -0.02993324 -0.106518544 -0.20384528 0.115916476
000070 ac f1 c2 3d b6 6c cd 3d bd c2 6b bd a3 f7 81 bc
       0.095187515 0.100305006 -0.057558764 -0.015865153
000080 dc 42 03 be 4e 57 d7 bd 03 d4 99 bd 83 ef 59 3e
       -0.12818474 -0.10514699 -0.07511141 0.21282773
000090 69 3b 23 be e4 c1 68 3d 05 97 7b 3c 77 b3 27 3e
       -0.15940632 0.056825534 0.01535583 0.16377054
0000a0 69 5b 8f 3e 96 0a 22 3e c6 97 68 3e c8 b0 84 3d
       0.27999428 0.1582435 0.22714147 0.06479031
0000b0 36 84 1c be 0a d5 22 bc 86 87 30 3e c2 8c 33 be
       -0.1528481 -0.009938488 0.17239198 -0.17534164
0000c0 25 a1 b1 bd c7 d4 89 3c 60 5e 0b 3e 63 08 5b bd
       -0.08673314 0.016825093 0.1361022 -0.053474795
0000d0 fe 85 7c bc d4 b8 1e 3c 5f f0 3d 3e 92 2e 66 3e
       -0.015412806 0.009687621 0.18548726 0.22478703
0000e0 e3 2c 36 3e dc ac c7 bd cc 7a 54 3d 38 f0 7d be
       0.1779056 -0.09749767 0.05187492 -0.24798667
0000f0 e8 c2 07 bd b7 d8 5c 3d 6c b8 1d bd 12 10 1f be
       -0.03314486 0.053917613 -0.038505957 -0.15533474
000100 90 a6 ea 3d 54 0c 6f bd fe b3 f9 bd fc 92 c6 3e
       0.114575505 -0.058361366 -0.12192534 0.38784015
000110 26 60 df 3d 5b fa 77 be 6b 01 9d 3d 33 70 1c 3e
       0.10907011 -0.24216597 0.07666286 0.15277176
000120 5d cf 88 3e ea 67 9c be bc a0 6f 3d fb 2d 89 3d
       0.26720706 -0.3054803 0.058502898 0.06698223
000130 df bb e8 3d 05 9d 17 3e 27 35 2c bd 53 73 f0 bd
       0.113639586 0.14805992 -0.042042878 -0.11740746
000140 fb 36 71 3e b6 b8 0f 3e fd fb c5 3d 1f b3 a0 3d
       0.2355613 0.14035305 0.096672036 0.07846665
000150 29 21 21 3d 73 0b db 3d e3 c7 ba 3d 2a f3 1f be
       0.039338265 0.10695543 0.091201566 -0.15620103
000160 a3 a6 33 be f4 bd de bd 11 fa f2 3d 89 5c a3 be
       -0.17544036 -0.108760744 0.11864103 -0.31906536
000170 7d 08 a0 3b 68 b4 c1 3d c0 9a 2c be a3 cd 7a bd
       0.0048838244 0.09458238 -0.16855907 -0.061231267
000180 90 a4 d4 bd 07 69 cc bc 37 19 81 3d 44 af d1 bd
       -0.1038295 -0.024952425 0.063036375 -0.102385074
000190 b1 b0 94 bc 81 d2 97 3e a4 f8 7f 3e 7a 95 bd 3e
       -0.01815066 0.2965279 0.24997193 0.37028104
0001a0 fa 5c 2a 3e 34 ae 7f bd a2 42 01 bd a9 90 2c bd
       0.1663703 -0.062421992 -0.031557687 -0.042130146
0001b0 89 b1 ad 3d 0b b5 a1 bd a6 7c 21 3e 8b 77 72 bd
       0.08481128 -0.07895859 0.15770206 -0.059196036
0001c0 0d 71 81 3d 0c d2 ea bd 7c 89 44 bd e4 00 bc 3d
       0.06320391 -0.114658445 -0.047982678 0.091798574
0001d0 33 5e a0 3e bc 16 83 3d ea 0d 2a be b2 e9 c0 3e
       0.31321868 0.064008206 -0.1660687 0.37678295
0001e0 68 fd 8a bd 18 e9 ee 3d 10 df d9 3d 1f 5b 3d 3d
       -0.06786615 0.11665553 0.10638249 0.046229478
0001f0 84 ff 03 3e 7e f4 af be a7 57 5f 3e 33 a1 be 3d
       0.1289044 -0.3436622 0.2181078 0.0930809
000200 3f f3 b1 3e 8c 81 a7 3c c4 da 97 3d 2d 4e 29 bd
       0.34755895 0.020447515 0.07414773 -0.04133432
000210 26 92 5a bd 98 3c 1c 3e 0f 08 68 be 6e d0 8f bd
       -0.053362034 0.1525749 -0.22659324 -0.07022177
000220 be ca eb 3d a4 77 26 3e de d8 7f 3e 99 a5 8c be
       0.115132794 0.16256577 0.24985072 -0.2747009
000230 b1 a1 2b be 12 40 4e bc cb 28 df 3d 15 ff 82 bd
       -0.16760899 -0.012588518 0.108964525 -0.06396309
000240 1c 2e 3b 3c ca 77 f1 3d 10 fe 6a 3d da 34 ba 3d
       0.011424568 0.11790426 0.0573712 0.09092112
000250 7e 40 ee bd 17 7e 89 3e 14 9f 09 3e 3a 0f 01 3e
       -0.11633395 0.2685401 0.1343959 0.12603465
000260 7f b9 c7 bb f0 9e 65 bd 7c e4 96 3e 25 98 a5 3d
       -0.006095111 -0.056059778 0.29471195 0.0808566
000270 80 9e 22 bd eb c8 21 be d7 68 81 be b5 50 4a be
       -0.03970194 -0.157993 -0.252753 -0.1975735
000280 79 b7 3c 3e 39 e4 6e 3d 6e f8 9e 3d 78 3e 98 3d
       0.18429364 0.05832312 0.07762228 0.0743379
000290 5f b0 c7 3d d6 4e f3 3d 5d 36 70 be 97 10 16 3e
       0.09750437 0.11880271 -0.23458238 0.14654766
0002a0 20 fe 0d 3b c3 5b 38 bd fe 49 33 be a9 c9 ff bd
       0.0021666363 -0.045009386 -0.17508695 -0.124896355
0002b0 09 cf f4 bc 43 18 f0 bd f2 f9 a1 ba a5 08 86 be
       -0.029883878 -0.117233776 -0.0012357815 -0.2617847
0002c0 ed 00 2d 3d 50 13 59 be 5e 57 02 3e 20 88 38 be
       0.04223721 -0.21198773 0.1272864 -0.18020678
0002d0 96 fc b9 bd f9 58 cd 3d 27 39 01 be 79 26 c2 3c
       -0.0908138 0.10026736 -0.12619458 0.023699986
0002e0 b2 79 37 3e 87 4a 7d 3d 85 d7 cc bd 16 1b 05 3e
       0.17917517 0.061838653 -0.100020446 0.12998614
0002f0 cb 67 a1 bd a5 97 ec bc b1 f9 ab bd cb 46 34 3c
       -0.07881125 -0.028880903 -0.08397234 0.0110032065
000300 4a 65 f9 bc a5 37 a7 3e e9 52 4f 3d e3 85 47 3d
       -0.030443806 0.3265964 0.05061618 0.04871167
000310 71 01 69 3d a5 0d f4 3a 72 7c ee bc 78 11 ff bd
       0.05688614 0.0018619789 -0.029112075 -0.12454504
000320 e5 ee 04 be 62 05 1c 3e fa 19 3a be 8f 93 7a 3e
       -0.12981756 0.15236428 -0.18173972 0.24470352
000330 10 d2 7f 3e b3 3b c7 bb e2 5c e5 3c cf 49 fe bd
       0.24982476 -0.0060801147 0.027998392 -0.124164216
000340 fb 74 17 be 5f 30 4e bc 1f c4 2c 3e 89 38 bc 3c
       -0.14790718 -0.012584775 0.1687169 0.022976177
000350 1e df 09 3e 25 10 a8 be e4 2e 87 3e 6f b0 f7 bd
       0.13464019 -0.32824817 0.26402962 -0.12094199
000360 2b 41 34 bc aa 69 7c 3d 7a 34 27 3d 75 2f 63 bd
       -0.011001865 0.061624207 0.04082153 -0.05546518
000370 c9 ae e9 be ae 1c c6 bd 70 ac bb bd d2 aa 50 be
       -0.45641163 -0.09673439 -0.09163749 -0.20377663
000380 b8 e8 90 bc 63 b8 f5 bd d2 34 d6 3c ad 56 ca 3d
       -0.017689094 -0.119980596 0.026148234 0.09879813
000390 da a0 4e 3d 90 84 3c 3e d0 29 95 bc b4 c3 dc 3c
       0.05044637 0.18409944 -0.018208414 0.026948787
0003a0 76 5a 20 be 0c a9 8a bb d4 c5 50 be b5 65 1e 3e
       -0.15659508 -0.0042315777 -0.20387965 0.15468486
0003b0 33 d0 8d be bc ba b5 3d b6 86 5c be d3 a2 09 3d
       -0.27697906 0.088735074 -0.21535763 0.033602547
0003c0 ae 52 07 3e 66 e4 9f 3d 50 da 2d be fe f1 09 3c
       0.13215134 0.078072354 -0.16977811 0.008419512
0003d0 e3 ae 2c 3e 61 ac 38 3e ce a0 53 bd d5 28 8b 3e
       0.16863589 0.18034507 -0.051667027 0.2717959
0003e0 16 e7 96 be e9 fc 3e 3e b9 f8 ef be 6a ba 89 3e
       -0.2947318 0.18651165 -0.46869448 0.26900035
0003f0 a6 0a 98 3d e1 cd c1 bc 65 d3 77 3e 64 9a 09 be
       0.07423906 -0.023657741 0.24201734 -0.13437802

FFNblocks.0.bn.weight f4 [120]
000000 c5 36 46 3f 5c e1 66 3f 3e bf 56 3f 92 a6 6b 3f
       0.7742732 0.9018762 0.8388556 0.9205104
000010 72 69 7f 3f 31 2f 4e 3f 07 ea 64 3f 29 09 72 3f
       0.9977027 0.8054076 0.894196 0.9454523
000020 7e 8d 58 3f 61 fb 61 3f 0f 94 5f 3f cb dc 67 3f
       0.845909 0.882742 0.87335294 0.9057128
000030 9d 5e 60 3f 5c 23 54 3f 37 8e 6b 3f df b3 65 3f
       0.8764437 0.82866454 0.9201388 0.89727587
000040 45 20 74 3f 71 b0 6d 3f 3d d8 76 3f 14 99 62 3f
       0.9536174 0.92847353 0.96423703 0.8851483
000050 64 b2 71 3f 45 77 67 3f a3 8e 69 3f 55 fd 5f 3f
       0.9441283 0.90416366 0.9123327 0.8749593
000060 01 5a 66 3f a5 ee 57 3f c1 54 61 3f c7 e4 6c 3f
       0.89981085 0.8434852 0.8801995 0.92536587
000070 61 3f 67 3f 5d ba 60 3f a7 8e 76 3f 15 aa 6c 3f
       0.90331084 0.8778437 0.9631142 0.92447025
000080 8b 4a 6f 3f d7 da 65 3f 4d b7 74 3f ab 41 6b 3f
       0.9347312 0.8978705 0.95592195 0.91897076
000090 de 3d 54 3f aa 05 79 3f 80 fc 81 3f ac d6 4d 3f
       0.829069 0.9727427 1.0155182 0.8040569
0000a0 12 10 67 3f f9 5c 6b 3f 1e 36 79 3f 10 ab 6e 3f
       0.90258896 0.9193874 0.973482 0.9322977
0000b0 fd 03 68 3f 35 85 77 3f b0 71 75 3f 8e c0 65 3f
       0.90631086 0.9668763 0.958766 0.8974694
0000c0 7d 01 7b 3f 86 27 80 3f 2e a5 70 3f 22 3c 66 3f
       0.98049146 1.0012062 0.94002044 0.89935505
0000d0 81 df 69 3f 89 d0 55 3f e6 05 84 3f 2d 54 5f 3f
       0.91356665 0.83521324 1.03143 0.8723782
0000e0 86 65 49 3f c8 ca 76 3f ce 3b 81 3f 34 83 70 3f
       0.7867054 0.9640317 1.0096376 0.939502
0000f0 ea e6 77 3f 0f 94 64 3f 8d 97 63 3f 37 a2 7e 3f
       0.9683672 0.8928842 0.88903123 0.9946627
000100 c2 6b 7d 3f cb 8c 5e 3f 95 ff 5f 3f 24 86 5c 3f
       0.9899255 0.86933583 0.8749936 0.8614218
000110 fd 97 5f 3f 1a ce 6d 3f bf 99 68 3f 87 e7 5d 3f
       0.8734129 0.9289261 0.908596 0.8668141
000120 6f 2d 6e 3f 64 b8 59 3f 49 c7 6a 3f d9 00 6b 3f
       0.93038076 0.8504698 0.91710335 0.9179817
000130 13 87 5e 3f 89 76 80 3f 37 ec 7c 3f 6e 1c 66 3f
       0.86924857 1.0036174 0.98797935 0.8988713
000140 83 87 73 3f ce 12 7a 3f a3 58 75 3f 0a a3 68 3f
       0.9512865 0.97684944 0.95838374 0.9087378
000150 ef 1a 77 3f 66 ac 6d 3f db ca 56 3f 07 71 64 3f
       0.9652547 0.92841184 0.8390328 0.89234966
000160 17 ca 74 3f 20 40 88 3f e6 86 75 3f 8d 50 77 3f
       0.95620865 1.0644569 0.95908964 0.96607286
000170 f1 76 70 3f 81 dd 6c 3f 20 fe 75 3f 8d 48 72 3f
       0.9393149 0.9252549 0.9609089 0.94641954
000180 5e 62 6f 3f 22 e8 75 3f d1 f4 7e 3f c1 4f 6d 3f
       0.9350947 0.9605733 0.9959231 0.9269982
000190 d9 de 3b 3f fc 06 5a 3f e9 33 75 3f e6 8d 73 3f
       0.73386914 0.8516691 0.95782334 0.95138395
0001a0 a1 4c 6f 3f b7 ec 7e 3f 7d 0c 5d 3f 05 d4 57 3f
       0.934763 0.9957995 0.8634718 0.8430789
0001b0 f0 fe 58 3f e9 46 62 3f ae 74 63 3f c0 5f 66 3f
       0.84764004 0.8838945 0.88849914 0.8998985
0001c0 1b 96 67 3f 44 b8 65 3f 43 83 5e 3f bf 9f 5a 3f
       0.9046342 0.8973429 0.8691904 0.85400003
0001d0 dc 2a 6e 3f 05 af 46 3f 64 dd 77 3f 08 17 6a 3f
       0.9303415 0.7761081 0.9682219 0.9144139

FFNblocks.0.bn.bias f4 [120]
000000 cc 3c db bd 39 2b 5a be 51 23 65 be 86 f0 2e bd
       -0.107049555 -0.2130555 -0.22376753 -0.04270985
000010 d0 6f 18 be be 83 57 be 43 1d 01 bd 4a f6 0f 3d
       -0.14886403 -0.2104635 -0.031522047 0.03514699
000020 3b 47 8a bc 55 31 80 bd 84 82 56 be e5 92 e3 bd
       -0.016879668 -0.06259409 -0.20948225 -0.11112002
000030 56 0b ca bd ca 5c 22 be 7b 77 af bd eb fd ba bd
       -0.098654434 -0.15855709 -0.08567711 -0.09130462
000040 63 fd 0c be 03 0f ae bc f3 2e c0 bd e4 1a 97 bd
       -0.13768534 -0.021247393 -0.09383955 -0.07378176
000050 a8 95 df bd 4f 54 d4 3c 35 8f b3 bc 79 35 a0 bd
       -0.109172165 0.025919108 -0.021918872 -0.07822699
000060 31 19 52 bd 96 1d a6 3c 1a 13 2d be 9c 7e 37 be
       -0.051293556 0.02027778 -0.16901818 -0.17919391
000070 49 b7 47 bd a0 b9 61 be b7 f3 2d bd a7 87 48 be
       -0.04875878 -0.22043467 -0.042468753 -0.19582997
000080 34 e6 31 3d 9d 4f 82 bd 48 84 17 be 11 76 3a bd
       0.04343243 -0.06362841 -0.14796555 -0.045522753
000090 8b 04 41 be 59 f2 0c 3d 37 98 0b be 5b 13 4e bc
       -0.1884939 0.03441081 -0.13632284 -0.012577857
0000a0 c1 1c f6 3c 45 bf 0f bd 4e 18 2d be fd 36 0e be
       0.030043008 -0.03509452 -0.16903803 -0.13888164
0000b0 29 b1 50 bb 6a 41 0d 3e c7 4d 64 be 53 e5 e7 bd
       -0.0031843877 0.13794485 -0.22295295 -0.11323037
0000c0 1c a9 df bd 99 5f 71 3d 2b 95 10 be 23 08 9d 3d
       -0.10920927 0.05892906 -0.14119403 0.076675676
0000d0 5c 8f e7 bd 9b 7f 42 be 37 f5 3f 3d 40 2e f0 bd
       -0.113066405 -0.1899399 0.046864714 -0.117275715
0000e0 8b e5 0a be 48 fa dd bd 6f 48 3f be 3a 04 d5 bd
       -0.13564126 -0.10838753 -0.18679975 -0.10401197
0000f0 4a 16 af 3c d2 df b7 3d 2b 26 34 be 75 4f e1 bd
       0.021372933 0.08978237 -0.17592685 -0.11001483
000100 de 3d 75 bd 0c cb 33 be c7 5c 8b be 70 32 49 be
       -0.059873454 -0.17557925 -0.2721922 -0.19648147
000110 68 b1 4e be 18 64 be bd bc 32 65 bd a2 a7 20 bd
       -0.20184863 -0.09296435 -0.055956587 -0.039222367
000120 6b cd a1 bd 95 83 aa bd 1d 2a 27 3d 2c cd a2 bd
       -0.079005085 -0.083258785 0.040811647 -0.0794929
000130 53 85 03 be 60 8b 23 be d1 ca d2 bd 05 18 25 be
       -0.12843828 -0.15971136 -0.102925904 -0.16122444
000140 00 82 c0 bd 6e 01 c6 ba 95 3e 50 be 3a 43 c2 3d
       -0.093997955 -0.0015106627 -0.20336373 0.09485479
000150 e7 67 10 bd e1 4d 14 be 56 9c ad bd 39 90 08 bd
       -0.03525534 -0.14482833 -0.08477084 -0.033340666
000160 ea b8 34 be 5b 30 88 bb 7f 21 66 bd e5 cd 12 be
       -0.17648664 -0.004156155 -0.056184288 -0.14336355
000170 aa fc f7 bc d6 f2 89 3c d2 86 cf bd ba c4 3a be
       -0.030271847 0.016839426 -0.10133137 -0.18239108
000180 02 bf 87 bd 0e fc c8 bb fc 87 e9 bd 47 f7 fb bc
       -0.06628229 -0.006133563 -0.1140289 -0.03075756
000190 84 2e 7d bd f5 ea 9f bd 61 19 e6 bd 56 c5 87 be
       -0.06181194 -0.07808486 -0.112353094 -0.26517743
0001a0 94 de df bd 56 2e 01 be 70 45 96 bd 50 f9 d6 bd
       -0.10931125 -0.12615332 -0.07337463 -0.10496771
0001b0 a3 e1 fc bc ea 3d c3 bd 30 db 0a be 1d 6e 2a be
       -0.03086931 -0.095332935 -0.13560176 -0.16643567
0001c0 b9 95 67 bd 82 ba 27 be ea 70 2d be e4 62 da ba
       -0.05653927 -0.16379741 -0.16937605 -0.0016661552
0001d0 cb 22 11 3d dc 18 a1 3c 5e 13 96 bb 5c 7c f1 bc
       0.03543357 0.019665174 -0.0045799455 -0.029478244

FFNblocks.0.bn.running_mean f4 [120]
000000 2e 35 1f 3f c8 66 fd bd 8f 76 87 3e e7 0f f1 be
       0.6219052 -0.123731196 0.2645764 -0.47082445
000010 a0 1d e2 be fb d4 24 be 11 92 da be 07 3a fb 3d
       -0.44163227 -0.1609687 -0.42689565 0.12266927
000020 50 9f cc 3c 0c 1e 6d 3e 8e f9 61 be e2 ec fa 3e
       0.02497831 0.23155993 -0.22067854 0.49008852
000030 12 e1 ca be 01 2f 1c 3f d4 3a 24 bf 7d 5f 8c bd
       -0.3962484 0.6100922 -0.64152265 -0.068541504
000040 fc e8 1a bf cf d3 04 bd 12 46 8d 3e b7 d6 5f 3e
       -0.60511756 -0.03242856 0.27592522 0.21859251
000050 68 84 38 3f a7 28 1d bf 1a 49 dd 3e 32 21 40 be
       0.72077036 -0.61390156 0.43219835 -0.18762663
000060 6c 5f bf be b6 44 4e bf 0b 80 0c 3d 16 4d 7d be
       -0.3737749 -0.80573595 0.0343018 -0.24736437
000070 38 6c 92 be 50 25 ba 3d ae 96 12 be a0 49 52 bf
       -0.2859819 0.09089148 -0.14315292 -0.8214359
000080 2a 9b 52 3e 54 1d 93 be b9 32 81 3e c4 e3 00 bf
       0.20567003 -0.28733313 0.2523401 -0.5034754
000090 a6 32 9e be d8 d9 5b 3e 24 e5 00 bf ac 00 73 be
       -0.30898017 0.2146982 -0.5034964 -0.23730725
0000a0 4a a2 1a bd 5e 24 db be 54 6f 0f bf e7 40 8f bd
       -0.037752427 -0.42801183 -0.5602925 -0.06994801
0000b0 a1 d5 62 be f5 27 7b be da fc 92 be a6 dd 23 bf
       -0.22151805 -0.24526961 -0.28708535 -0.64010084
0000c0 3c f5 98 be 31 3f 02 bf 11 55 24 3e ca 7e ca be
       -0.298746 -0.5087767 0.16048075 -0.39549857
0000d0 ca 2b 59 be 8e cf 10 3f 6d 67 02 3e e7 48 7b bc
       -0.2120811 0.56566703 0.12734766 -0.0153372055
0000e0 b8 8c b5 3e 3e ec 93 be 68 34 96 3e 3f c2 e2 bd
       0.35458922 -0.28891176 0.29336858 -0.11072206
0000f0 44 2d 78 3e 47 a7 8a be 75 25 0b bd e3 d6 3b 3f
       0.24236017 -0.27080747 -0.03397127 0.73374766
000100 b4 8d bc be f0 a3 7d bd 7f df 94 bd f8 ce 11 3e
       -0.3682686 -0.06192392 -0.07269191 0.14239109
000110 81 5d cb 3d 8e df 1c 3e 24 63 b8 be e6 05 70 be
       0.09929944 0.15319654 -0.36013138 -0.2343975
000120 94 34 cc 3e 46 6c 5e bc 38 e3 a2 bb 11 32 d1 ba
       0.39883864 -0.013575619 -0.0049709342 -0.0015960356
000130 06 78 2b bf e1 f8 2e be aa 5b 6c 3b 8c 07 0a 3e
       -0.66980016 -0.17087127 0.0036065378 0.13479441
000140 9e 11 2d bf c0 80 93 bd 0b cd 9e 3e b8 72 3c bf
       -0.67605007 -0.072022915 0.3101581 -0.73612547
000150 fb f8 35 be b1 e3 91 be a4 8a f6 3e b5 ab 67 bf
       -0.1777076 -0.28494027 0.4815265 -0.9049638
000160 4b 6a 1b 3e 9c fd f6 bd ba 05 22 bf 05 a4 94 bd
       0.15177266 -0.12060091 -0.6328999 -0.07257847
000170 42 38 ec be 45 75 f6 bd 5e b0 91 3e ed 22 68 3e
       -0.4613667 -0.12034086 0.2845487 0.22669573
000180 c6 3f 21 3e a6 05 ab be 3d 33 35 3e 25 64 ef be
       0.15746984 -0.33402747 0.17695327 -0.46756092
000190 8e 11 16 3f 18 c0 3d bf 60 3c 7e 3e 77 b3 5e 3e
       0.58620536 -0.74121237 0.24827719 0.21748148
0001a0 c5 ea f5 3b 44 5f 2c 3f cf e8 b1 3e 1c 6c 8c be
       0.0075047933 0.67332864 0.3474793 -0.2742623
0001b0 ca 67 13 3e 30 7e 06 3f 76 33 aa 3e b5 9d 2e bf
       0.14395061 0.52536297 0.33242387 -0.6820939
0001c0 5c 56 14 bf eb d9 7c be 4d 8c a0 3e 8e 7f 7d be
       -0.57944274 -0.24692504 0.3135704 -0.2475569
0001d0 89 51 27 bf c2 65 01 3f 26 62 2a bf 84 cd ea bd
       -0.6535879 0.50545895 -0.6655601 -0.1146498

FFNblocks.0.bn.running_var f4 [120]
000000 55 7a 84 3f 7e c3 22 3f 5c d7 39 3f 64 38 78 3f
       1.0349833 0.6357955 0.7259424 0.96961045
000010 0c 3b 6c 3f 40 ec 63 3f b9 95 98 3f 76 ca 70 3f
       0.922776 0.89032364 1.1920692 0.9405893
000020 d0 5b 50 3f 2c 3b 89 3f 42 51 60 3f f6 5c 3f 3f
       0.81390095 1.0721183 0.8762399 0.7475122
000030 1e 59 3e 3f f6 60 73 3f 58 8d 54 3f c0 9a 4a 3f
       0.7435473 0.95069826 0.83028173 0.7914238
000040 b0 f4 1c 3f 7b 9d 68 3f f0 59 3f 3f 95 19 41 3f
       0.61310863 0.90865296 0.7474661 0.7542966
000050 04 7e 66 3f 94 44 6a 3f f0 b9 56 3f 02 5c 7e 3f
       0.90036035 0.9151089 0.8387747 0.9935914
000060 6b 55 4d 3f 79 83 69 3f 01 eb 64 3f 13 b0 31 3f
       0.8020846 0.91216236 0.8942109 0.6940929
000070 f5 43 77 3f e0 c4 19 3f 00 49 84 3f a2 00 48 3f
       0.9658807 0.6006603 1.0334778 0.78125966
000080 89 33 4d 3f f1 a1 47 3f c4 de 6f 3f 51 85 a4 3f
       0.8015676 0.7798148 0.9369929 1.2853185
000090 0c d2 8e 3f 7b ca 9d 3f c0 d6 41 3f b4 df 65 3f
       1.1157851 1.2327417 0.7571831 0.8979447
0000a0 b1 a8 81 3f cf ce 5e 3f de be 68 3f 3f db 47 3f
       1.0129606 0.87034315 0.9091624 0.7806892
0000b0 22 cc 43 3f 2d 06 87 3f 2e 34 53 3f 05 1b 70 3f
       0.76483357 1.054876 0.82501495 0.9379123
0000c0 c8 7b 8c 3f b5 a8 6d 3f 88 80 8b 3f cf 48 5e 3f
       1.0975275 0.9283555 1.08986 0.8682985
0000d0 88 f0 37 3f 92 b4 a7 3f f9 77 80 3f 0b c0 8c 3f
       0.71851397 1.3101981 1.0036613 1.0996107
0000e0 84 3b 6c 3f 3e 6b 6e 3f 44 85 84 3f 60 55 46 3f
       0.92278314 0.9313239 1.035317 0.7747402
0000f0 42 37 71 3f 97 ab 5d 3f b2 d3 1f 3f 3d 13 80 3f
       0.9422494 0.8658995 0.62432396 1.0005871
000100 65 aa 4b 3f 05 19 64 3f 81 09 48 3f 4f 64 4f 3f
       0.79556876 0.89100677 0.781395 0.81012434
000110 ba 8d 2f 3f 78 55 84 3f 4d 41 62 3f 4d ca 75 3f
       0.6857563 1.0338583 0.8838089 0.9601181
000120 93 ad 34 3f 33 24 78 3f 4c 26 47 3f c8 c0 58 3f
       0.70577353 0.96930236 0.7779281 0.8466916
000130 09 fa 57 3f 2b f8 77 3f d9 53 80 3f 12 78 57 3f
       0.843659 0.9686305 1.0025588 0.8416759
000140 93 c5 9f 3f c8 b2 1e 3f a8 28 63 3f fe 92 1d 3f
       1.248217 0.6199155 0.8873391 0.6155242
000150 71 9a 3e 3f 23 b1 52 3f 14 c7 4c 3f d2 cc 8c 3f
       0.7445441 0.8230154 0.7999127 1.1000006
000160 0c e7 56 3f 16 74 5b 3f d6 26 4a 3f 96 7a 4a 3f
       0.839463 0.8572401 0.7896551 0.790933
000170 03 e5 71 3f f6 e3 8d 3f 14 41 93 3f 63 55 a6 3f
       0.9449007 1.1085193 1.1504235 1.2994808
000180 6a 94 6e 3f 8f 97 51 3f 8d d4 79 3f 21 bd 74 3f
       0.9319521 0.81871885 0.9758995 0.9560109
000190 68 97 15 3f 56 7a 21 3f c4 dd 7e 3f d1 b2 82 3f
       0.5843415 0.63077295 0.9955714 1.021082
0001a0 86 37 58 3f 61 a0 4e 3f 24 f5 70 3f 01 ae 41 3f
       0.8445972 0.8071347 0.94124055 0.75656134
0001b0 fd 69 4d 3f 87 ce 4c 3f d8 1d 1f 3f d0 e3 75 3f
       0.8023985 0.80002636 0.6215491 0.9605074
0001c0 1f 51 a2 3f 07 b6 24 3f 02 22 3a 3f ae 1a 84 3f
       1.2681006 0.6434025 0.7270814 1.0320642
0001d0 f6 d4 40 3f c1 0b 7e 3f bf 59 28 3f 28 ec 73 3f
       0.7532495 0.99236685 0.6576194 0.9528222
